notebooks/tests/model.tflite (tflite, 205476 bytes, 4 tensors)

arith.constant f4 [10, 64]
000000 f8 68 45 bc 50 60 7f 3b cb db 29 3e 2b 20 f4 3d
       -0.012048952 0.0038967319 0.1658775 0.11920198
000010 54 de 77 3e 27 e0 03 3e fa de e4 3d 7e 16 48 3d
       0.24205905 0.12878476 0.11175342 0.048849575
000020 d9 e2 0f 3e d4 eb 0b be d8 1c 0b be 68 91 74 be
       0.1405138 -0.1366418 -0.13585222 -0.23883593
000030 66 1e 30 3e d0 b0 41 be e5 00 5f be 9a 5f 9a 3c
       0.17199096 -0.18915105 -0.21777685 0.018844415
000040 a9 0f 31 be 39 d1 53 3e 9e 4f 99 bd a2 e0 2d 3e
       -0.1729113 0.20685281 -0.07485889 0.16980222
000050 3d cd 87 3d cd fa 1e 3d f8 d7 28 be 79 60 23 3e
       0.06630943 0.0388134 -0.16488636 0.1595477
000060 fe 93 79 bd da 77 79 be 82 cf e5 bc 30 a7 5a be
       -0.060932152 -0.24362126 -0.028053049 -0.2135284
000070 5a eb 30 3e 77 b0 90 be bf 47 45 3d 1a b7 36 3e
       0.1727728 -0.28259632 0.048164126 0.17843285
000080 1b 43 6a be 76 5b 8d bb 02 02 fb bc d8 ca 55 3e
       -0.22877161 -0.0043138815 -0.030640606 0.2087816
000090 85 69 86 bd c2 e5 03 be 40 37 3e 3e df 2c 86 3e
       -0.06563095 -0.12880614 0.18575764 0.2620611
0000a0 42 f4 6b bd 1d c0 da 3d 36 67 1d 3d da c1 3a be
       -0.05760599 0.10681174 0.038428508 -0.18238011
0000b0 f2 73 6e bd 0c d0 41 3e 6d a6 57 be 39 ea df 3a
       -0.058216043 0.1892702 -0.2105958 0.0017083354
0000c0 4a a8 c2 3d b3 b5 3d be 29 cc 1b 3e 1c 17 df 3d
       0.09504755 -0.18526344 0.152146 0.1089308
0000d0 57 32 08 be 4c 17 7c 3e 52 46 ad 3d e5 b4 a0 3d
       -0.13300453 0.24618262 0.08460678 0.07847003
0000e0 f7 31 7b 3e 5f 68 5f be 04 89 7b bd 4f 98 f3 bd
       0.24530779 -0.21817158 -0.061409965 -0.11894285
0000f0 cf ab fe 3d 35 bc 7e bd 4e a1 67 3e 11 08 f8 3d
       0.12435114 -0.062191207 0.22620127 0.121109135
000100 f2 18 7a be a7 ca 2f 3e c6 6b 73 3e 60 7f 08 3d
       -0.24423578 0.1716715 0.23771581 0.0333246
000110 a9 42 f2 b9 7e 63 ab 3d 1f a4 37 3e be 1a 16 3e
       -0.00046207503 0.08368586 0.17933701 0.14658639
000120 2e 8c 55 3e 11 80 0b 3e 2a 38 7c be 21 f0 4c 3e
       0.20854256 0.13623072 -0.246308 0.20013477
000130 b7 84 e1 bd 22 cb 09 be ad 44 4f bd 16 96 18 3e
       -0.110116415 -0.13456395 -0.050602604 0.14901003
000140 5f d2 7c 3e 42 00 eb 3d f0 76 5e 3e f4 b2 52 be
       0.24689625 0.114746585 0.21725059 -0.20576078
000150 d7 04 d9 3d 20 87 8e 3e 5b 20 e9 3c 7b 45 3b 3d
       0.10596626 0.27837467 0.028457811 0.04572056
000160 f8 08 8e 3e 76 e5 99 3d 51 4a 09 3d 5c 83 78 3e
       0.27741218 0.07514469 0.03351814 0.2426886
000170 c0 d5 1a 3e a9 41 49 be c8 a7 85 3e 39 c2 7a 3e
       0.15120602 -0.19653954 0.2610457 0.24488153
000180 05 08 a9 3b 4a 9b 04 bd 47 87 80 be b6 54 85 be
       0.0051584267 -0.032374658 -0.25103208 -0.26041192
000190 c0 d3 2e 3e ff 39 72 3d 7f 58 af 3d eb ca 17 be
       0.17072964 0.05913734 0.08561801 -0.14823501
0001a0 7c d7 d6 bd 7b e4 9e 3d 77 86 17 be de 39 9f bd
       -0.10490319 0.07758423 -0.14797388 -0.07774709
0001b0 6b d2 60 bd 29 22 4c be d6 db 5b be 38 e4 67 3e
       -0.05488817 -0.19934906 -0.2147058 0.22645652
0001c0 17 6e 05 3e 3b b0 38 be 9e 6b 61 be 25 31 67 be
       0.13030277 -0.18035977 -0.22013709 -0.22577341
0001d0 09 39 ad 3d 6f 8e 8c be 64 60 38 bd 7e 23 6d be
       0.08458144 -0.27452418 -0.0450138 -0.2315807
0001e0 4c 23 61 bd b4 46 50 bc c0 2a 1b bd f0 84 76 3e
       -0.054965302 -0.012712169 -0.037882566 0.24074149
0001f0 a7 6b 1e be f9 4a 8e 3d 93 46 3e bd d6 48 67 be
       -0.15470754 0.06947894 -0.046454024 -0.22586378
000200 8b 08 7e be 6f 4a 4d 3e f5 2c 89 be 83 00 2f 3e
       -0.24807946 0.20047925 -0.26792112 0.17090039
000210 75 4f df bd cc 41 8d 3c 3f 84 22 be 88 04 84 3e
       -0.10903827 0.017243288 -0.1587076 0.25784707
000220 54 a8 35 be 88 e3 a7 bd bb 1c 6d 3b 04 1a a2 3d
       -0.17739993 -0.08197695 0.0036180455 0.07915118
000230 8e ed 64 be af 75 fc 3c 28 23 15 3e e9 79 32 3e
       -0.22356245 0.030817835 0.14564192 0.17429318
000240 13 87 64 3c 3c 85 55 3e 7e de 74 3e 32 9c 2c 3d
       0.01394822 0.20851606 0.23912999 0.042141147
000250 23 55 18 bc 0f d1 8f bd b5 63 4e 3e 95 52 8a bc
       -0.009297642 -0.07022297 0.20155223 -0.016885081
000260 8a 80 08 3c d0 10 8a be 4c 6c 90 3e b6 31 2b be
       0.008331427 -0.26965952 0.28207624 -0.16718182
000270 9b 97 72 be f4 7d 8b bd b8 d0 61 3e c9 33 86 be
       -0.23690645 -0.06811133 0.22052276 -0.26211384
000280 8f 94 6b be 8a c3 14 3e bb 5c 82 bc 59 63 43 be
       -0.2300589 0.14527717 -0.015913358 -0.19080867
000290 34 3a 12 3e 79 54 9d bd 95 80 4c 3e 73 53 7a 3e
       0.14280015 -0.076821275 0.19970925 0.24445896
0002a0 2d c9 59 3e 62 ab fc bd 51 c6 86 3e 34 8d 3c 3c
       0.21268149 -0.12337376 0.26323178 0.011508275
0002b0 96 83 5b 3e c3 11 00 3e be 53 34 bd e6 b0 5f be
       0.21436915 0.12506776 -0.044025175 -0.21844825
0002c0 60 60 25 bd 83 20 93 bd fb c0 4a be 1c 42 8e be
       -0.040375113 -0.071839355 -0.19800179 -0.27784812
0002d0 c4 68 45 be eb 36 13 3e b8 f2 a2 bd 80 fd 13 be
       -0.19278246 0.14376418 -0.07956451 -0.14452171
0002e0 e1 47 3b 3e 4e 83 de 3d a1 eb 2b be 47 6b 0c 3e
       0.18289138 0.10864888 -0.16789104 0.13712798
0002f0 be 71 9c bd 48 5d 67 be ea e3 3b 3e 96 ca bf 3c
       -0.07638882 -0.22594178 0.18348661 0.02341203
000300 c4 95 68 be d5 77 a7 bd 2d a7 2d 3d 1e 10 29 3e
       -0.22713381 -0.08177153 0.04239576 0.16510054
000310 d9 18 65 be f3 da d2 bd f1 c3 48 3e 2d af 06 be
       -0.2237276 -0.102956675 0.19605996 -0.13152762
000320 d7 82 21 3e 0c 85 ef 3b bd 1e 16 bd 94 34 43 3e
       0.15772568 0.0073095616 -0.036650408 0.19063026
000330 a5 bb 6f 3e 48 1e b4 bc a9 60 5c 3e 4d 45 08 be
       0.23411424 -0.021987095 0.21521248 -0.13307686
000340 cc f5 39 be 0d d7 13 bd f1 0b 2c bd f1 9f 83 3e
       -0.1816017 -0.03609376 -0.042003576 0.25707963
000350 a5 5c 6b bd c9 24 50 be 93 91 14 bd 4e ee da bd
       -0.0574614 -0.20326532 -0.036271643 -0.10689984
000360 5b 0f 9a 3c 2c 31 9e bd dc e1 bb bd 80 00 39 be
       0.01880615 -0.077242225 -0.09173939 -0.18066597
000370 f7 d1 a6 3d d6 b1 83 be 19 2a 1c 3d 7f 80 91 bd
       0.08145516 -0.25721616 0.038126085 -0.07104587
000380 06 66 a2 bd 19 a5 88 bd 80 7f 33 be b3 98 8c be
       -0.07929616 -0.06672115 -0.17529106 -0.2746025
000390 39 e4 4c be 7a 01 f4 bd 94 a5 06 3e 35 37 88 3e
       -0.20008935 -0.11914344 0.131491 0.2660462
0003a0 04 3f 06 3e 0d a4 67 bd f3 f5 66 be 55 6e b4 3d
       0.13109976 -0.056552935 -0.2255476 0.08810107
0003b0 62 e2 ef 3d 45 52 9b 3c 6b 25 69 3e 0b 82 c7 3d
       0.11713101 0.018960128 0.2276818 0.097416006
0003c0 0a b3 66 3e 9d e7 67 bd 30 49 27 be 35 e7 d6 3d
       0.22529235 -0.056617368 -0.16336513 0.10493318
0003d0 61 18 47 3e 6b 0e 08 3d 4d 32 e5 3d 6d 06 12 be
       0.19442894 0.033216875 0.11191235 -0.14260264
0003e0 6a b9 24 bc 1b 58 fc bd 2d cb 1f 3e 74 0e 8a bd
       -0.010053972 -0.12321492 0.15604849 -0.06741038
0003f0 54 8f 58 be 88 32 f1 3d 68 58 62 3e 4c 7e d4 bd
       -0.21148425 0.11777216 0.22104037 -0.10375652

arith.constant1 f4 [64, 784]
000000 81 ed 22 bd f6 af ba bc 22 3e 72 3d 49 b3 a2 bd
       -0.039777283 -0.022788983 0.059141286 -0.07944352
000010 26 b1 81 bd c8 1d 1c 3c cf 94 8f bd 24 cf 95 3c
       -0.063326165 0.009528585 -0.07010805 0.018287249
000020 fc ab 51 3d 83 5b 35 bc 7f d4 6e 3d 11 0c 10 bd
       0.051189408 -0.011069181 0.05830812 -0.035167757
000030 65 66 06 3c 68 50 fa bc 89 fd 4b 3d 10 03 4c 3d
       0.008203124 -0.030555919 0.049802337 0.049807608
000040 80 c9 18 3d d2 2d 0d 3d ee cf 96 bd 83 bf 30 3d
       0.03730154 0.034467526 -0.07363878 0.04315139
000050 62 88 88 3d a4 91 1b 3d c7 9a 7d bd 30 3e 85 3c
       0.06666638 0.03798069 -0.061915185 0.016265005
000060 ec 81 cf bc 08 bb 7c bc d8 c8 4b bd 3e cd 42 3d
       -0.025330506 -0.015425451 -0.049752086 0.047559015
000070 24 59 df 3c 38 25 46 bc 80 5f 43 bd bf b5 07 3d
       0.027264185 -0.012093835 -0.047698498 0.03313231
000080 6e 0f 3d 3d 09 ba 93 3d 84 14 e3 bc 1b 36 86 bc
       0.046157293 0.07213218 -0.027719744 -0.016383221
000090 32 5c 74 3d 3d 22 c3 bd 2e 0d 36 3d a1 9d 2b bd
       0.059658237 -0.09528015 0.044446163 -0.041898374
0000a0 1b ce e3 bc ea 43 05 bd f9 0a 96 3c 41 a3 94 bd
       -0.02780824 -0.03253547 0.018315779 -0.07257701
0000b0 a1 86 c4 bd 4a 5f 7d 3d b0 62 87 3d 30 8e 77 3d
       -0.09595991 0.061858453 0.0661062 0.060438335
0000c0 4a 1f 06 3c 4b 9b b5 3c 44 0d 8c bd b9 e0 61 bd
       0.008186171 0.022168776 -0.06838468 -0.055145953
0000d0 af 6f a4 3d b8 3e 16 bd 5a 5e de bc 10 e8 05 3d
       0.080291145 -0.036680907 -0.0271446 0.032692015
0000e0 92 fe 67 3d 70 ad 87 3c 08 f3 93 bd 97 73 1d bd
       0.05663926 0.016562194 -0.07224089 -0.038440313
0000f0 d8 9c a9 bc d9 64 00 bd 74 9c 44 3d cd c8 8e bd
       -0.020704672 -0.031346176 0.048000768 -0.069718935
000100 4b 14 e8 3c 8e 24 ae bd 32 2f be 3c b5 b6 90 3c
       0.028329989 -0.08503066 0.023215864 0.017665247
000110 33 a0 51 3c ea c8 c4 bd ca 32 0e 3d d9 20 53 3d
       0.012794542 -0.09608634 0.034716405 0.051544998
000120 41 47 69 bd a0 ab 62 bd 46 4f ff bc bf 82 d0 bc
       -0.05695272 -0.055339456 -0.03116573 -0.02545297
000130 c8 86 93 3d 3f e9 c2 3b d3 0d 7e bd 4f 24 60 bc
       0.07203442 0.0059482153 -0.062024903 -0.013680532
000140 5f 2d c6 bc 5c 5a a1 bd 13 4d 12 bd 66 ab f1 bc
       -0.024191556 -0.07878563 -0.035718035 -0.029500674
000150 92 36 04 3d 70 2a 04 3d 76 6d 55 3d 21 54 fd bc
       0.032278605 0.032267034 0.052106343 -0.030923905
000160 70 c3 e1 bc c8 82 5a bc 40 b9 1c 3d 93 37 4a bc
       -0.027559012 -0.013336845 0.038262606 -0.0123423515
000170 e1 22 16 bd c0 f7 0f bc 86 10 bf bc 46 10 79 bd
       -0.036654357 -0.008787096 -0.023323309 -0.060806535
000180 8c 8e 2f bb a0 55 a8 3b e5 7a 1b bd d7 07 90 3d
       -0.0026787845 0.0051371604 -0.037959 0.07032745
000190 ab 12 c3 bc e3 61 81 3d 5e 27 53 3d 0d 37 8e 3d
       -0.023812613 0.063174985 0.051551215 0.06944094
0001a0 79 6f 2c 3d 6e 3a 61 bd e8 80 ca 3d e1 98 59 bd
       0.042098496 -0.054987364 0.09887868 -0.053124312
0001b0 e4 3f c8 3d 94 31 76 bd 28 d3 59 bd e7 2a 74 ba
       0.09777811 -0.060105875 -0.05317989 -0.0009314254
0001c0 ad df 83 3d d6 f4 40 3d 3e 1b 09 bd d5 90 8f 3c
       0.06439147 0.047108494 -0.033473246 0.017525116
0001d0 34 67 57 bd 10 ef 99 bc 45 fc 32 bd c9 1e 66 bc
       -0.052588657 -0.018790752 -0.043697614 -0.014045426
0001e0 1e cd 67 3d 7e 54 8d 3d 3d f0 08 bd c4 d1 9a bd
       0.0565921 0.06900881 -0.033432234 -0.07559541
0001f0 20 54 a1 bd 29 6a 74 3d b1 ab 12 3d 45 25 63 3c
       -0.07877374 0.059671555 0.03580827 0.013863866
000200 8d 4f 1d bd 9e 69 46 3c 21 0d 01 3d 0c 05 99 3d
       -0.038405944 0.012110142 0.03150666 0.07471666
000210 dd f7 bd 3d 0a 33 7c bd 0f fe 96 3d ec 4c 48 bd
       0.09275792 -0.061572112 0.073726766 -0.048901483
000220 48 bb 4f bb ce f7 84 3d ae e7 36 3d 5b cf c3 3c
       -0.0031697322 0.064925775 0.04465454 0.023902586
000230 7f ce 88 3d fe 9c 53 bd 40 68 65 bc c0 2a be ba
       0.06680011 -0.05166339 -0.014001906 -0.001450859
000240 10 a6 6d bd b2 45 95 3d 84 a9 9b bd 5c 8b 3a bd
       -0.058019698 0.07288684 -0.07600692 -0.04554306
000250 03 31 10 bd ff 84 42 bd 90 d8 a8 bc ae 37 08 bd
       -0.03520299 -0.047490116 -0.020611078 -0.033256225
000260 70 31 ad bd b7 00 19 bd 61 9f 7d bd a0 42 b6 bc
       -0.08456695 -0.037354197 -0.061919574 -0.022248566
000270 f3 d3 49 3d f3 51 70 bd c0 c4 85 3d f8 f7 99 3b
       0.049274396 -0.058671903 0.06531668 0.0046987496
000280 db 87 57 bd 93 4a 7b bd 8d 69 55 bc 05 57 99 bd
       -0.052619796 -0.061350416 -0.013025654 -0.07487301
000290 5e 8c 3c bd 08 a3 3e 3d 35 11 b1 bc fd cf a6 3d
       -0.046032302 0.046542197 -0.02161465 0.08145139
0002a0 23 3c a7 3d 3f d5 93 bd 36 47 f1 3c 8c 61 70 3c
       0.08165767 -0.07218408 0.029452901 0.0146716945
0002b0 d1 d2 95 3d 8e ab 84 3d b4 8d 45 3d fc 81 a7 bd
       0.07315601 0.06478034 0.04823084 -0.081790894
0002c0 95 33 24 3d 71 66 38 3c ed 12 a5 bd 08 0f 8e bd
       0.040088255 0.011254893 -0.080602504 -0.06936461
0002d0 06 b5 22 bc f7 27 9c bd 7b d0 01 bd 8f 49 aa bd
       -0.009930855 -0.0762481 -0.031692963 -0.083148114
0002e0 bf fc ed bc 54 a8 ae bd 72 88 5b 3d dd 0b a9 bd
       -0.029051183 -0.085282 0.05359692 -0.08254216
0002f0 ca 6f 47 bd d8 0f 6e bd 17 3c 41 bd 27 b6 1c 3b
       -0.048690595 -0.05812058 -0.047176447 0.0023912282
000300 22 c4 f5 bc af 9d bf bc 71 12 46 bd da fc 68 bc
       -0.03000075 -0.02339062 -0.04835743 -0.014220441
000310 b6 45 a8 bd 97 95 a8 bd bc be 5c 3d 48 b6 97 3c
       -0.08216421 -0.08231657 0.053892836 0.018519536
000320 b7 4a d3 bc 70 17 d7 bd 5c c3 8d bd f7 72 8e bc
       -0.025792463 -0.10502517 -0.069220275 -0.017388804
000330 7e 0a bf bd d4 17 b7 3c 34 73 a7 3b d8 9e 96 bd
       -0.09328173 0.02235023 0.005110169 -0.07354516
000340 3c b5 9c bc 55 13 43 bc 55 fc 6c bd 6d 13 90 bc
       -0.019129388 -0.011906465 -0.05785783 -0.017587388
000350 dd 4e ef bd 9e 6a 60 bd b1 d6 db bc 90 45 36 bd
       -0.11684964 -0.054789178 -0.026835771 -0.044499934
000360 8e b4 a5 bd da f1 49 3c b3 2e 5e 3d 8b 74 a6 bd
       -0.08091079 0.012325728 0.054243755 -0.081276976
000370 a8 41 f2 3b 84 91 a2 bd 6f 18 40 bd 42 e1 f4 3b
       0.0073930807 -0.07937911 -0.0468983 0.007473142
000380 e2 0a 83 3d 99 8e da bc 87 ea 47 bd 57 91 4d bd
       0.0639856 -0.026679324 -0.048807647 -0.050187435
000390 24 16 74 bd cf cd 08 3d de e3 4c bd 8d d1 b6 bd
       -0.059591427 0.0333994 -0.050022 -0.089266874
0003a0 e7 75 f9 3c 4f a7 72 bd a8 d7 b6 bd c6 94 c5 bd
       0.030451728 -0.05924159 -0.08927852 -0.09647517
0003b0 3f 80 2f 3d 06 ef 4b 3d 07 41 05 3d b0 d1 14 bc
       0.042846914 0.049788497 0.032532718 -0.0090831965
0003c0 fb d2 f8 3b 2c e6 c8 bc 1e dd 57 bd 40 78 ed bd
       0.00759351 -0.024523817 -0.05270111 -0.115952015
0003d0 8f 7a dd bc 66 d8 aa bd 55 0d 23 bd d5 59 24 bd
       -0.02703598 -0.08342056 -0.039807636 -0.040124733
0003e0 05 e4 0a 3d cf df 1c bc 7c d7 18 3d 5f ea 88 bc
       0.033908863 -0.0095748445 0.037314877 -0.01671332
0003f0 f7 9b a5 bd fa 3f df bd 3a 2b 76 bb cb 5d 5d 3d
       -0.080863886 -0.109008744 -0.0037562386 0.054044526

arith.constant2 f4 [64]
000000 b3 cc 02 3d e6 5f 8d bb dd 0c 94 bc ec c3 90 39
       0.031933498 -0.0043144105 -0.01807254 0.00027611793
000010 d8 30 4d bc c7 dc f4 3b cf 8a 94 bc 08 ab 5e bc
       -0.012523852 0.007472608 -0.018132595 -0.013590582
000020 41 42 96 bd db c7 1c bd 07 36 ff bc 79 ee e2 bc
       -0.07336856 -0.038276535 -0.031153692 -0.027701603
000030 3d 72 ec bb 4c aa 3b bc 34 43 31 bd f1 1f dc 3a
       -0.0072157667 -0.011454176 -0.04327698 0.0016794187
000040 6e 72 ce bc e2 18 60 bc 31 6a 8a bc 61 31 9c bc
       -0.025201049 -0.0136778075 -0.01689634 -0.019066514
000050 da 55 80 3c 45 c3 b0 bc a6 a2 91 bc a5 27 89 bc
       0.015665937 -0.021577487 -0.017777752 -0.016742537
000060 e9 a6 5c bc 68 bd a2 bc fd 70 5d bc ce f4 9f bc
       -0.013467529 -0.019865707 -0.013515708 -0.019525912
000070 fa 9b 99 bc 54 1f 8f bc 36 66 6e bc 67 ae 73 bc
       -0.018751133 -0.017470993 -0.014550736 -0.014873124
000080 9f 46 04 bc 73 d4 68 bc ad 5f 30 bc aa 7c 92 3c
       -0.008073478 -0.014210808 -0.010764998 0.01788171
000090 d7 13 f5 3c 1d 73 bb 3c 53 99 d4 bc 08 b7 dc bb
       0.029916687 0.022882039 -0.025952017 -0.006735686
0000a0 af dd bf 3c b3 b3 cd bc cd 77 8d bc 9c e7 8e bc
       0.023421137 -0.025110101 -0.01726904 -0.017444424
0000b0 80 44 ae bc ca 28 02 bd 59 be 01 bd 5e 9b 9f 3a
       -0.021272898 -0.03177718 -0.03167567 0.001217704
0000c0 72 6a 7b bc 1a 71 1c bd 23 fa 2f 3d a4 81 b0 bc
       -0.015345203 -0.0381938 0.04296316 -0.021546192
0000d0 8d 91 ee bb de f5 99 bc 20 ff 92 bd 44 b3 4f 3d
       -0.0072805346 -0.018793996 -0.071775675 0.05070807
0000e0 1d a5 e6 bc 3a 3a 73 bc ac a2 ad bc 23 50 9a bc
       -0.028154904 -0.014845425 -0.021195732 -0.01883704
0000f0 34 ff 36 bd c6 dc db bc b0 ca 63 bc ee da 94 bc
       -0.044676974 -0.026838671 -0.013903305 -0.0181708

arith.constant3 f4 [10]
000000 b2 20 08 3f 13 75 7d bf 5d d8 45 3f e6 0f f4 3d
       0.5317489 -0.99006766 0.7728327 0.11917095
000010 7b ef 46 3f db 01 59 bf b2 9a 3f 3f 2d 6c 5e bf
       0.7770917 -0.84768456 0.7484542 -0.86883813
000020 4a a5 04 bf 75 91 5d bf
       -0.5181471 -0.86550075
