notebooks/tests/model.tflite (tflite, 205500 bytes, 4 tensors)

arith.constant f4 [10, 64]
00000000: d306 87be f32f e5bd 0ab9 6e3e 9fdb 3d3e
00000010: 789b 833e cc69 053e 70c7 45be 34d8 fd3d
00000020: b672 5dbe 178a e93d eed5 6e3e 5d95 ab3b
00000030: 1014 57bd fb61 77be f575 41be 5b7d 823e
00000040: b80e 1f3d a050 29be a4ce 3c3e 4f36 54bd
00000050: 1ae3 63bd 3e90 38be 0981 a6bd dda3 6a3e
00000060: 2f86 70be 6cf8 cebd 26aa 233c 25bd 2ebe
00000070: 265c 3fbd 62b5 0d3e 735b 863e 35f7 c0bd
00000080: d3c2 023e 22e8 153e 9c89 6f3e e6aa 503e
00000090: 5991 193e 1402 04be 3975 053c 7f9a 923c
000000a0: 611a 20bd 1303 b7bc d004 153e 7788 0abc
000000b0: 8c72 713e f764 8abd bb00 323e 35de 85be
000000c0: f2b8 873e cf70 9b3d f3b8 023e ffbf 2d3e
000000d0: 03a3 3ebd 3d31 8cbd 797d 433d 35a2 d0bd
000000e0: 240e 833e e9a7 3cbe fd5c e1bd 7a34 9e3d
000000f0: 3f55 f73d 5a27 c1bd 4144 39ba b22d 9ebc
00000100: 6c5c 12bb 08ed 55be 47b8 2d3e 03de 723e
00000110: ad51 c9bd 36dd c6bd 6eac 07be 86c2 323e
00000120: d60a 733d 119a fabd c0c2 593e 5206 1c3c
00000130: 0389 05bd bee9 073e 79f0 123e b148 e53d
00000140: bf6f a93d fba4 bc3d 7b31 273e 9f03 03be
00000150: 9962 e1bc 7e6e 1fbe e45b 18bd ed7c 293e
00000160: 7886 653e 785d 29be 5db6 4d3d ff32 b13d
00000170: 0525 0a3d 66f0 d63d 95b1 abbd 6ab6 263e
00000180: 6f02 183e 0e30 5dbe db33 2c3b 21d3 6fbd
00000190: 8840 f1bd 66b4 6f3e 0990 6abe 902a bfbd
000001a0: feca 7fbe c13d 493e e758 1cbd b1e1 583d
000001b0: c0cc 75be 94f9 433e 0596 1f3e c5f6 f9bd
000001c0: 80f1 5bbe 6246 33be c60d bfbd 9fd7 953c
000001d0: fe2b b93d e616 05be 60c4 0bbe 7d00 be3d
000001e0: 4820 5c3e 7954 7cbd d95f 03be afee f13d
000001f0: 7dc2 c83c ca19 483e e117 69be 8337 b53d
00000200: c62d 3ebe 6149 d53d 517a 613e 43af 20be
00000210: c89f 1bbe 36d2 f53c 93d9 edbc 5e39 8c3e
00000220: 04c3 02be 8bca 69be f56d 623e e72d 82bd
00000230: ba2e 00bd e4c6 753e 57e8 1bbe 327d 5e3e
00000240: 4444 56bd a4fb 18be 0eb9 d4bd 174b 4bbd
00000250: a7d3 6cbe 510b 163e 7198 01be 4354 db3d
00000260: 73d8 09be 59fd 143e 9796 f9bd 7e29 4b3e
00000270: e2cb a33d 8575 743e 4d86 433e a0a4 8e3c
00000280: 0cd9 75bb 11cb 44be deff 88be e6ec 1abc
00000290: 1756 543e e8c0 7ebe ddca d93d 4573 043e
000002a0: 2c93 68bd 2ff9 bd3d aed8 c53c 507e 91be
000002b0: 9099 833e 8d37 ba3d ca10 823d a7dd 54be
000002c0: 90c1 7e3e 759d 283e 7e68 813e 2c4b 2abe
000002d0: b141 82be c713 fc3d bfee 073e 39f4 f7bd
000002e0: 0889 86be 8f98 3ebe 8562 c73d c8e2 38be
000002f0: 92e0 06be 31ff 2a3d 981d 0dbe c432 b33c
00000300: 02d4 8abe e14d 793e 448b c2bd e008 7bbe
00000310: 9312 7ebe 7d87 393e 46a6 893e ed8d cd3d
00000320: 1786 823b b5d6 813e 6ebb 38be f65b d63c
00000330: 050f 42be f28d 6a3d 336a 403e e754 7d3e
00000340: 29e8 863d 9b4f 3cbe 57e4 403d 5e82 eebd
00000350: 895b 30be 1ac9 a83d e218 743e 59ee 673e
00000360: c41b 163e 9f6e 27be 7e31 63be 6840 003e
00000370: a302 ecbd 348b 88be dbcc 7fbd 2fd4 fb3b
00000380: 87d2 3dbd 3754 c3bd dd74 d93d 68c7 373e
00000390: bed4 debc 9653 6cbe c25a 02be 9c77 2bbe
000003a0: f01b 823e 37c2 b2bd f5a7 69be 0dad 4f3e
000003b0: 580d dc3d 7ad0 7ebd 7a81 e73d 59ca 0dbe
000003c0: effb f6bc 1771 333d 923a 54bd ce7f 843e
000003d0: 99aa 133e 54da 05be 9ee6 483e a7c1 64be
000003e0: 4140 bf3c 5fde 7e3e f971 dfbc fb04 083e
000003f0: 4de5 75be 38c0 7cbd 5d85 60be b075 b1bd
-0.26372394 -0.11190786 0.23312774 0.1854081 0.2570455 0.1302864 -0.1931436 0.12394753
-0.2162579 0.11403292 0.23323795 0.0052363114 -0.052509367 -0.2415847 -0.18892653 0.25486264
0.038832396 -0.16534662 0.18438202 -0.051809605 -0.055636503 -0.18023774 -0.0813008 0.22914071
-0.23488687 -0.101059765 0.009989297 -0.1706434 -0.04671874 0.13838723 0.26241645 -0.09422151
0.12769632 0.14639333 0.23392338 0.20377693 0.14996852 -0.12891418 0.008145624 0.017895935
-0.039087657 -0.022340333 0.14552617 -0.008455387 0.23578852 -0.06757539 0.17383091 -0.26146093
0.2650829 0.07589876 0.12765865 0.16967772 -0.04654218 -0.06845329 0.047727082 -0.101871885
0.25596726 -0.18423428 -0.11004064 0.07724853 0.12076806 -0.09431334 -0.00070673606 -0.019308899
-0.002233292 -0.20891201 0.16964827 0.23717503 -0.098300315 -0.097101614 -0.1324937 0.17457017
0.059336506 -0.12236417 0.21265697 0.009522991 -0.032601368 0.1327276 0.14349546 0.111955054
0.08273267 0.09211155 0.16327469 -0.1279435 -0.027512835 -0.15569493 -0.03719701 0.16551562
0.22414577 -0.16539562 0.050222743 0.08652305 0.03372671 0.10495071 -0.083834805 0.16280523
0.14844678 -0.21600363 0.0026276025 -0.058550958 -0.117798865 0.2340866 -0.22906508 -0.0933429
-0.24979779 0.19652463 -0.03817072 0.05294961 -0.24003887 0.19138175 0.15584572 -0.12205271
-0.21478844 -0.17507318 -0.09328799 0.018291293 0.09041594 -0.12997016 -0.1364913 0.09277437
0.2149669 -0.061603997 -0.12829532 0.118131034 0.024506802 0.19541088 -0.22763015 0.08848479
-0.18572149 0.104143865 0.22019316 -0.15691857 -0.1519767 0.030007463 -0.029034412 0.27387518
-0.12769705 -0.2283117 0.22112258 -0.063564114 -0.031294562 0.24001652 -0.1522535 0.21727446
-0.052311197 -0.14939743 -0.10386859 -0.049632158 -0.23127614 0.14652754 -0.12655808 0.10709431
-0.13461475 0.1454977 -0.12186926 0.19840047 0.07997872 0.23872955 0.190942 0.017412484
-0.0037513403 -0.19218089 -0.2675771 -0.009455895 0.20735966 -0.24878275 0.10634396 0.12934597
-0.05678098 0.092760436 0.024151172 -0.2841668 0.25703096 0.09092627 0.063508585 -0.20787679
0.24878526 0.16466315 0.25275034 -0.16630238 -0.25440744 0.1230846 0.13274668 -0.12107129
-0.26276422 -0.18612884 0.09735588 -0.1805526 -0.13171604 0.041747276 -0.1378082 0.021874793
-0.27114874 0.24346115 -0.09499219 -0.24515104 -0.24811773 0.18118091 0.2688467 0.10036836
0.00398327 0.2535912 -0.18040249 0.026166897 -0.18951042 0.057264276 0.18790512 0.24739419
0.0658725 -0.18389742 0.04709276 -0.11645959 -0.17222418 0.08241482 0.23837617 0.22649516
0.14659029 -0.16350792 -0.22186849 0.12524569 -0.115239404 -0.26668704 -0.062451225 0.0076852064
-0.046343353 -0.09537547 0.10617993 0.17947161 -0.027201053 -0.2307876 -0.12729934 -0.16744846
0.2541194 -0.0872845 -0.22817977 0.20280857 0.107447326 -0.062210537 0.113039926 -0.13846721
-0.030149428 0.043809023 -0.05181367 0.25878757 0.14420547 -0.13071567 0.19619223 -0.22339498
0.023346068 0.24889515 -0.027276026 0.1328315 -0.24013253 -0.06170675 -0.21925874 -0.08665025

arith.constant1 f4 [64, 784]
00000000: 107f f03b c245 66bd 74f0 3e3c 1380 b1bd
00000010: 6e69 8cbd 5d44 a63c e282 423d e97a 1f3d
00000020: 3f78 72bd e46a f83c dc7b 8c3d 2a50 3bbd
00000030: 6441 103d d2ce 663d 727d b4bd 787e c4ba
00000040: d104 003d 0f1a 69bc e084 63bd 84ef 443d
00000050: 9a25 b6bc d80d d53b b2a8 a0bd 47a6 133d
00000060: 1ab7 713d 14d6 873c 2af7 033d a8f9 fc3c
00000070: 2a8f 523d 3474 a1bd d1a2 28bd 3170 a6bd
00000080: 056f 8cbd 0e5d 59bd be36 233d 03cb e73c
00000090: c581 65bc 5672 83bc 8aa8 85bd 2865 0e3d
000000a0: a71d adbc 4286 95bc 2311 483d a64f 70bd
000000b0: 6c86 1f3d f11a a1bc 6912 6dbd e39d bf3c
000000c0: 39b3 663d 391b 09bc 4dc9 51bd 85dc f7b9
000000d0: 1909 043c 7310 46bc 9e1d 9cbd 22f0 843d
000000e0: e7ce b03c bfba 193d 5e1f 47bc 230b a93b
000000f0: c009 84bc 53d0 9e3a 0028 afbd e5a4 02bd
00000100: 2cf0 593d ed4b ffbc 642a b03c f9ab 803d
00000110: a1d5 75bd 7edd 983c da32 083c 6870 a1bb
00000120: 4569 e13c 567c 19bd d4e2 283d 0bfa a6bd
00000130: db91 04bd a892 b2bd b1cc 093d 8d97 8bbd
00000140: 4a1a 763d a71e 71bd f585 e3bc 6f88 31bd
00000150: 9832 b43d f56d 853d 111f 273d a86e 22bc
00000160: e9b8 1d3d 7abc babd b63b e93c 4eb1 0a3d
00000170: 2f02 553d 22c1 80bd 0fbe 6fbd 63e9 b5bd
00000180: a6f0 0ebd 9611 57bd 7b38 fa3b d431 963d
00000190: 9344 82bd 3db0 163d 3b24 8bbd 1044 5cbc
000001a0: 0cd4 0cbd 71a4 edbc a182 78bd 4907 633d
000001b0: 4151 0e3c a413 273c 7f40 47bd 191a 913c
000001c0: abd0 a2bd f606 713d f0ce 84bd 8f0a d03c
000001d0: d55b 443d aef1 323d 9048 c2bc ce0b 27bd
000001e0: e63b 523d edac 593d c8f4 38bd 00d7 85bd
000001f0: 8501 403c ee9c 95bd 5b03 1b3c 72a2 a0bd
00000200: 57e6 8f3d f390 25bd 98aa afbd a90f a1bd
00000210: d01f f73b b7b4 2cbd 134f d2bc 85e9 97bd
00000220: c8da 1dbd 86fd 4cbd 0345 423d cdfb 19bd
00000230: 8e0e ffbc 695b 9fbd 45a1 113d f6dd aebd
00000240: 7f6c 383d 2f9d 4f3d 93b1 b4bd 1bb0 6b3c
00000250: e66e 053d 8b3e 203d 1de2 553d 7de5 833d
00000260: b02a 9ebd 0513 2d3d e1c6 ef3c 60af 96bd
00000270: c8b4 163d 7b67 3f3c 8972 1e3d 6966 30bb
00000280: 87fd be3c 744f 813d 844a f0bc 5b05 24bd
00000290: c278 753d 7010 b6bd b2a9 97bd 7647 3e3d
000002a0: 04c5 d6bb 7d8a 963b d3c7 003c 41ea 4cbd
000002b0: eb21 babd 8fd3 983d 184c edbc a671 63bd
000002c0: d963 7bbd 8e3f 55bd 1f26 2c3d e633 483d
000002d0: 7721 863d 5cdf 6ebd 3c69 223d ac91 0e3b
000002e0: da1f b5bc 1147 03bd 4726 87bd 54b5 4ebd
000002f0: 853c 6b3c 598d a33d 96cb 3b3d 7182 bd3c
00000300: f835 34bd b82f 913d 7134 babc 82d7 1abd
00000310: 34ee e8bc f602 a83c f910 83bd bfb8 a33d
00000320: 1571 12bc d5b3 9dbd 72c6 8f3d 52f7 8c3b
00000330: 0272 9b3d b16f 1b3c 0c79 a8bc a81f 9abc
00000340: 03e7 94bc 52cb 403d 805b e33c 4264 6dbd
00000350: 3348 07bd 833a 9abd 5566 293c df21 3a3d
00000360: 8b27 923d 7811 55bd d078 02bd f362 f53c
00000370: 7713 a3bd 1cab 9bbc 0068 593c b3b0 87bd
00000380: 7dd7 803d ceea 973d 3021 90ba ea8b e13c
00000390: ace9 e9bc 01cd cdbb d76a 20bd 39e6 7e3d
000003a0: f5ab 4a3c 14cc c8bc 53e0 8d3d c4ae 063d
000003b0: 1e62 a83c 074d 8cbd 0f1a 6c3d b6f6 773d
000003c0: 1687 6e3d 7089 10bd 8cb0 b8bc 38c7 3dbd
000003d0: b948 37bc ad22 40bd 9155 84bc 61c3 07bd
000003e0: d1bf b1bd e2e1 94bd 3a5a 5b3d 1c59 68bd
000003f0: f16d 593d 9fb4 dcbc 3f3d ddbc 1625 3e3d
0.007339366 -0.05621887 0.011654008 -0.08667006 -0.068560466 0.02029627 0.0474881 0.038935576
-0.059196707 0.030324407 0.06859562 -0.045730747 0.03521861 0.056349583 -0.08812989 -0.0014991304
0.031254593 -0.014227404 -0.05554664 0.048079982 -0.022234727 0.0065018944 -0.07844676 0.036047246
0.05901251 0.016581573 0.032218136 0.030880764 0.051406063 -0.07883492 -0.0411709 -0.081268676
-0.06857113 -0.05306726 0.039847128 0.028295046 -0.01400799 -0.01604573 -0.06526287 0.03476444
-0.021132303 -0.018252496 0.048844468 -0.05866971 0.038946554 -0.019666167 -0.057878885 0.023390716
0.056323264 -0.008368307 -0.051217366 -0.0004727581 0.00805881 -0.012088883 -0.076228365 0.06491114
0.021583034 0.03753161 -0.012153475 0.0051587983 -0.01611793 0.0012116529 -0.08552551 -0.031895537
0.05320756 -0.031164134 0.021504588 0.06282801 -0.060018186 0.018660303 0.008312905 -0.00492673
0.027516017 -0.03747209 0.041231945 -0.08153161 -0.03236566 -0.08719379 0.033642475 -0.068160154
0.060083665 -0.058867123 -0.027773837 -0.043343004 0.087987125 0.06515113 0.04080111 -0.009914078
0.038506422 -0.0911798 0.028470855 0.033860497 0.052004036 -0.06286837 -0.058530863 -0.088824056
-0.03489747 -0.052507006 0.0076361275 0.07333723 -0.06360736 0.036789168 -0.0679402 -0.013443962
-0.03438191 -0.029009076 -0.060671452 0.05542687 0.008686365 0.010197554 -0.048645493 0.01771264
-0.079499565 0.05884453 -0.06484783 0.02539566 0.04793914 0.043687515 -0.023716241 -0.040782742
0.051326655 0.05314343 -0.045155317 -0.065351486 0.011719112 -0.073053226 0.009461249 -0.07843484
0.07026356 -0.040421437 -0.0857746 -0.07864315 0.007541634 -0.04216453 -0.025672471 -0.07417587
-0.038538724 -0.050046466 0.047429096 -0.03759365 -0.03113487 -0.07781107 0.03555419 -0.085384294
0.045025345 0.05068701 -0.08822932 0.014385249 0.032576464 0.039122146 0.05221759 0.06440256
-0.07722986 0.042254467 0.029269638 -0.07357669 0.0367935 0.0116823865 0.038683448 -0.002691651
0.02331425 0.063139826 -0.029332407 -0.04004417 0.059929617 -0.08889854 -0.07405414 0.04645487
-0.006554248 0.004594146 0.007860142 -0.05002809 -0.090885006 0.074622266 -0.028966948 -0.055528305
-0.06137452 -0.052062564 0.042028543 0.04887762 0.06549352 -0.05831848 0.03965114 0.0021754308
-0.022109915 -0.032050196 -0.06599098 -0.050465897 0.014357691 0.07985944 0.04584845 0.023133488
-0.04399678 0.0708918 -0.022730084 -0.03780318 -0.028433897 0.020509224 -0.06399722 0.07994222
-0.008938094 -0.07700316 0.07020272 0.004301944 0.07590105 0.0094870785 -0.020565532 -0.018813923
-0.018176561 0.0470689 0.027753592 -0.05795694 -0.03302784 -0.075306915 0.010339339 0.04544246
0.071364485 -0.052018613 -0.031853497 0.02995441 -0.07962697 -0.01900249 0.013269424 -0.066254996
0.06291101 0.07417832 -0.0010996219 0.027532537 -0.028553806 -0.006280542 -0.03916439 0.062231276
0.012370099 -0.024511375 0.06927552 0.032881513 0.020554598 -0.06850629 0.05764204 0.060538016
0.058234297 -0.03528732 -0.022545122 -0.046332568 -0.011186772 -0.04690807 -0.016154082 -0.033145312
-0.08679164 -0.07269646 0.053552844 -0.056725606 0.053083364 -0.026941596 -0.027006743 0.046422087

arith.constant2 f4 [10]
00000000: 950b 2cbe 29c9 4dbf 2fa2 7a3f 0c43 d2be
00000010: 4b9a 693f 6562 27bf 651a 433f 75da 39bf
00000020: adea bdbe 21f3 78bf
-0.16801293 -0.8038507 0.9790372 -0.41066778 0.9125106 -0.65384513 0.7621215 -0.72598964
-0.37093106 -0.97245985

arith.constant3 f4 [64]
00000000: 66d3 dcbc e663 6cbc 208e 97bc 5e85 09bd
00000010: af59 4f3c 400b 9ebb 9305 87bb cbcd eebc
00000020: 9034 48bd 9991 75bc 2e9f 21bc 98fc 8fb6
00000030: b0e5 603d 5c68 d4bc fbae bfbc 2f49 cdbc
00000040: 776b b8bc de64 0dbc 4e10 ab3c 773c aa3c
00000050: 07fb 6abc 8428 13bd 09e2 57bc c7ac cebc
00000060: 24fb a8bc a5d1 15bd 67af 78bc f16f 5f3b
00000070: 7db9 8ebc 75b1 253c 5140 c0bc 80df b1bc
00000080: 91e9 f83c 5c77 86bc fc12 c73b ec8a babc
00000090: 6cc4 94bc 72b3 08bb a4c4 4fbb a8cb 40bd
000000a0: b146 8fbc 0d5c 53bd 2981 82bc b449 a5bc
000000b0: 0d65 0bba d531 b2bc ed3d 3dbd 5afa 84bc
000000c0: f6ee a4bc f3e4 08bd 6310 06bd 89d5 4ebc
000000d0: 0b32 1ebc bdf8 4a3c ffb0 a1bc 63d9 a0ba
000000e0: 4a30 8ebc 7510 51bc aa6f 913c 6bf0 acbb
000000f0: 259e 88bc 0b5c bfbc 1aed d6bc bcbf d5bb
-0.026956271 -0.0144281145 -0.018500388 -0.033574454 0.01265566 -0.0048231184 -0.0041205375 -0.029150864
-0.048878253 -0.0149883265 -0.009864612 -4.291138e-06 0.054906547 -0.025928669 -0.023398867 -0.02505931
-0.02251218 -0.008630006 0.020881798 0.020780785 -0.014342076 -0.03592731 -0.01317645 -0.025228871
-0.020627566 -0.036576886 -0.015178538 0.0034093822 -0.017422432 0.01011311 -0.023468168 -0.021713018
0.03038481 -0.016414337 0.006075261 -0.022771321 -0.018160067 -0.002085891 -0.00317029 -0.04706922
-0.017489763 -0.05160146 -0.015930729 -0.020176746 -0.0005317487 -0.021752277 -0.046201635 -0.016232658
-0.020133477 -0.033421468 -0.03273047 -0.012624153 -0.009655486 0.012388405 -0.019737719 -0.0012271818
-0.01735701 -0.012760271 0.01775344 -0.0052776835 -0.016676972 -0.02335932 -0.026236106 -0.0065231007
