notebooks/tests/model.tflite (tflite, 205500 bytes, 4 tensors)

arith.constant f4 [10, 64]
000000 65 f3 8d be 19 68 49 be 15 f7 04 be d5 da 22 be
       -0.27724758 -0.19668616 -0.1298488 -0.1590379
000010 9e 2c 1e 3e f7 18 08 3c b3 a3 79 3d 61 2e 29 3e
       0.15446708 0.008306733 0.06094713 0.16521598
000020 63 6d 03 be 5f 7d 55 3e 6d dc db 3d f8 60 5a 3e
       -0.12834696 0.20848607 0.10735402 0.21326053
000030 64 8d 1c be 3a a7 9b 3c 18 c4 a8 bd 9b 63 10 3e
       -0.15288311 0.019000638 -0.08240527 0.14100496
000040 01 85 54 3e d0 83 c6 3d 50 e4 29 3e 98 21 24 be
       0.20753862 0.0969311 0.16591 -0.1602844
000050 be 53 3c be a3 d6 77 be 8c db 89 be bb 96 01 3e
       -0.1839132 -0.24202971 -0.26925313 0.12655155
000060 5d ba 53 3e 9f 17 0b 3e 17 df 56 be 65 1a 83 be
       0.2067656 0.1358323 -0.2098354 -0.25606075
000070 df a1 38 3d 13 92 81 3e 38 f4 85 3e 50 3a 9f 3d
       0.045076247 0.25306758 0.26162887 0.07774794
000080 06 da 3a 3e f5 04 cf 3d 2d a4 42 be 5c c9 94 3d
       0.18247232 0.10108367 -0.1900794 0.07264969
000090 29 72 82 bb b0 27 fd bd 2f 2b 0b bd 0c 33 60 3e
       -0.003980894 -0.123610854 -0.03397673 0.21894473
0000a0 84 3a 4a be 14 19 fa bd 1e ae 46 3e 80 e0 28 be
       -0.19748884 -0.122118145 0.19402358 -0.1649189
0000b0 b3 36 87 be 24 1c 8e 3e 44 5f 4c bd ed 85 3d 3e
       -0.2640892 0.27755845 -0.04989554 0.1850812
0000c0 f8 99 0e 3d ca ff 36 be ab 9f 06 bd c1 37 6c 3d
       0.034814805 -0.17871013 -0.032867115 0.05767036
0000d0 57 36 36 3e 01 a8 af bd 40 43 b5 3d 50 f6 26 3d
       0.17794167 -0.08576966 0.088507175 0.040762246
0000e0 ef af 33 3d 2b 9a cb bb fc 44 7e 3e 09 bb 73 be
       0.043868955 -0.0062134466 0.24831003 -0.23801817
0000f0 76 a9 86 3e f9 37 f0 bd ac 51 29 be 28 7c 26 bd
       0.26301163 -0.11729426 -0.16535062 -0.04064575
000100 63 a3 dc bd 60 35 43 bd a3 ed 89 be 72 15 1c be
       -0.10773351 -0.047658324 -0.26939115 -0.15242556
000110 ab dd 5f bc 21 62 cf 3d 65 55 af 3d b6 01 20 3e
       -0.01366369 0.101261385 0.085612096 0.15625653
000120 5b 75 02 3d f2 3e 30 be 97 5e 70 bd da d5 19 be
       0.0318502 -0.17211512 -0.058683958 -0.15022984
000130 7a 5f 68 3e c9 5c 03 3e 0d e7 7e be 1f 8d 02 3e
       0.22692671 0.12828363 -0.24892826 0.12749146
000140 05 ce b9 3d 64 d5 0d 3e c0 12 8b 3e 0c 13 51 be
       0.09072498 0.13850933 0.27162743 -0.20417422
000150 43 66 c8 bd 11 7c 00 be fa f3 0b be 4f 2d 1b be
       -0.0978513 -0.12547328 -0.13667288 -0.15154003
000160 b8 68 b2 bd 65 2c f9 3b 44 99 94 bd 98 ac 3b bd
       -0.0871138 0.007604169 -0.072557956 -0.045818895
000170 54 84 bf bd b7 09 55 3e 9d d0 85 3e f7 e0 9e bc
       -0.093514115 0.20804487 0.26135722 -0.019394381
000180 ac 4f 63 bc af 7a 2f bd 4f a2 b7 bd 52 b5 5b 3d
       -0.013873976 -0.04284161 -0.08966505 0.053639717
000190 09 7c e7 3c ee 86 96 3d 3e 90 b9 bd d3 c3 26 be
       0.028257387 0.073499545 -0.09060715 -0.16285639
0001a0 3d dc 7d be 82 9d 19 3e 2f e1 23 3e 42 32 7d be
       -0.24791045 0.1500149 0.1600387 -0.24726203
0001b0 d5 3c 8b 3e 69 5d e8 bd 87 ae 79 be d2 db d2 bd
       0.2719485 -0.113459416 -0.24382983 -0.10295834
0001c0 40 5d 5b be ee 09 30 3d 38 ee 8c 3d 3d b3 80 be
       -0.21422291 0.04297822 0.06881374 -0.25136748
0001d0 07 9c 80 3d b2 eb 1b be 97 8b 20 be ce 40 45 be
       0.0627976 -0.1522663 -0.1567825 -0.19263002
0001e0 9c 22 ce 3d bb 01 d8 bd e1 4f 0a bc 95 5c 12 3e
       0.10065195 -0.10547205 -0.008441896 0.1429313
0001f0 b0 54 61 be 79 6f 31 be 3c fe 49 3e f7 8a 84 be
       -0.22004962 -0.1732768 0.19725889 -0.25887272
000200 58 a3 d2 3d 4f ef 47 be 6c 9c 62 be 5d 4f 28 be
       0.102850616 -0.19524883 -0.22129983 -0.16436525
000210 e5 f7 71 be 2c 5c 85 3e 1d 9e ef bd d4 fc f0 3d
       -0.2362972 0.26046884 -0.117000796 0.11766973
000220 19 d2 e4 bd 97 6f 50 be a8 a7 11 3e bc c9 23 be
       -0.111728854 -0.20355068 0.14224112 -0.15994924
000230 07 db 0d 3e 78 e3 c3 3d 65 d0 80 be aa dd 48 3e
       0.13853084 0.095648706 -0.25158992 0.19615808
000240 b9 9c d1 ba e6 a7 49 be b7 0f c9 bb af d6 76 be
       -0.0015992142 -0.19692954 -0.0061359066 -0.24105333
000250 b5 20 db 3d a5 a2 80 3d 72 b2 37 3e 46 90 92 3d
       0.10699598 0.06281022 0.17939165 0.07156424
000260 d9 4f 2b be 9e 1d 88 be 7e ad 1d be 46 85 b8 3b
       -0.16729678 -0.26585096 -0.15398213 0.005631122
000270 81 c0 fa 3d d5 67 d5 3c 07 68 f9 bd d9 80 69 bc
       0.122437485 0.026050488 -0.12178045 -0.014251911
000280 a8 02 77 bd 29 23 c0 3d dd 95 4a be e3 02 3f 3e
       -0.060305268 0.09381706 -0.19783731 0.18653445
000290 af 92 3a 3e 8e ae fb bd 54 58 f3 3d f9 0f 46 be
       0.18220018 -0.12289153 0.11882082 -0.1934203
0002a0 11 7a 26 be be 7f 3c 3e 35 6b 94 3d f9 17 04 be
       -0.16257502 0.18408105 0.072470106 -0.1289977
0002b0 02 95 31 be 14 39 12 3e 2b 33 0b bd 43 4c 97 bb
       -0.17341998 0.14279586 -0.033984344 -0.0046172454
0002c0 0a 7c b5 bc 2f 40 a6 3d e2 40 f2 3d d9 35 8c bd
       -0.022153873 0.08117711 0.11828782 -0.06846208
0002d0 18 80 7c 3d f2 0a f4 bc c9 e6 28 be aa 34 29 be
       0.061645597 -0.029790375 -0.16494288 -0.16523996
0002e0 56 0d 27 3e 5c 08 33 3d dd 42 51 3e f1 54 01 3c
       0.16313681 0.043709144 0.20435663 0.007893787
0002f0 3d d2 08 bd e6 da fb 3d 78 ec ea bd 1f 65 fb bd
       -0.033403624 0.12297611 -0.11470884 -0.12275147
000300 c4 f6 62 be 21 51 f5 bd d0 26 70 be 9c 0d d5 3d
       -0.22164446 -0.11978365 -0.23452306 0.104029864
000310 0b 0e 04 be 95 37 59 3e 61 e2 37 3d f3 b0 3c 3e
       -0.12895982 0.21212609 0.044893626 0.18426876
000320 e9 43 3d 3e de a5 09 3e 01 52 7d 3e 57 2d 18 3d
       0.18482937 0.1344218 0.24738313 0.037152614
000330 88 6d 2b 3c a3 a7 cb bd af 64 89 3d b3 08 c1 bc
       0.010463126 -0.099440835 0.06708657 -0.023563718
000340 c2 a4 1a 3e e2 da 7f bd ab ee b2 3d 2f ac 20 3d
       0.15101913 -0.062464602 0.087369286 0.039226707
000350 1c 98 ed 3d 6c fa 5a be e5 78 82 3e 67 f2 83 be
       0.11601278 -0.21384591 0.2548286 -0.25770876
000360 15 5b 23 3e a8 10 22 be d5 f8 53 be bd a0 65 bd
       0.15952714 -0.15826666 -0.2070039 -0.056061495
000370 80 4b 20 3e ab e5 7d 3d aa cd 21 3e 29 95 20 3e
       0.15653801 0.061986607 0.15801111 0.156819
000380 27 84 fe bd 20 be 35 3e d9 91 7a be 09 c8 59 be
       -0.1242755 0.17748308 -0.24469699 -0.21267714
000390 b2 19 37 3e a7 2d 6e bd cf 94 88 3e b0 c7 1b 3d
       0.17880896 -0.058149006 0.26676032 0.038032234
0003a0 ee 4f 13 be 18 32 59 be 47 0d 9b 3d cc 04 02 3e
       -0.1438596 -0.21210515 0.07570892 0.12697142
0003b0 95 a7 7b 3d 7c 48 5d bd 43 9a 1a 3e d5 70 b6 bd
       0.061439116 -0.054024205 0.15097909 -0.0890824
0003c0 a9 fd 41 be ce e0 bc bb 58 49 59 3e 92 c9 21 3e
       -0.1894442 -0.0057641035 0.21219385 0.15799549
0003d0 d7 7f bc 3d 30 52 02 3e 36 c3 97 3d 56 d2 65 3b
       0.09204071 0.12726665 0.074102804 0.0035067997
0003e0 35 0c 69 3d 91 ab e7 bd 70 42 63 be b6 75 27 be
       0.056896407 -0.113120206 -0.22193313 -0.16353497
0003f0 cc 24 8a 3e b5 9c 3b 3e 0b 42 f1 bd a3 dd 15 be
       0.269812 0.18321498 -0.11780175 -0.14635329

arith.constant1 f4 [64, 784]
000000 3d 3c 6d bd 0d 06 83 3d ea 4a 47 3d 60 4e 1b bd
       -0.057918776 0.063976385 0.048655428 -0.03791654
000010 6c 73 f8 3c 41 ea 10 bd 41 17 3d bd 1a 08 e8 bc
       0.030328475 -0.035379652 -0.046164755 -0.028324176
000020 6e bc 8d 3c e3 17 a2 bd 81 e1 ff 3b 23 26 a2 bd
       0.017301764 -0.07914712 0.0078088646 -0.0791743
000030 c7 cf 12 bd 97 9a 7d 3d 7b 27 0f 3d 4b ac 2d bb
       -0.035842683 0.061915006 0.03494976 -0.00265004
000040 a4 89 66 3d 69 1b 8f 3c c3 8a 38 3c b2 e1 b0 bd
       0.056283608 0.017469125 0.011263552 -0.08636798
000050 12 56 da bc 79 af 28 3d 53 c8 46 3d 19 03 47 bc
       -0.02665237 0.04118297 0.048530888 -0.012146735
000060 6e 98 0d 3d c0 c6 d9 bc 80 5a a0 ba fc 61 d9 3c
       0.034569196 -0.02658403 -0.0012234002 0.02653598
000070 92 4f c0 3c a0 35 83 bb e0 3d 77 3c c2 4e 1f bd
       0.023475442 -0.0040041953 0.015090436 -0.03889347
000080 24 67 a4 3c 35 3c 27 bd 64 ac b7 bd 3e 4c 90 3d
       0.020068713 -0.040828902 -0.08968428 0.07045792
000090 0b 2a 99 3d 68 41 92 3c 3c d5 5e 3d 9c 32 51 3c
       0.07478722 0.017853454 0.054402575 0.012768414
0000a0 cf 01 53 3d 2f 71 bb bd 05 e9 66 bd a3 4a 23 bd
       0.051515397 -0.091524474 -0.05637457 -0.0398661
0000b0 fa 7f 95 3d d3 fc 09 3d 16 9d a6 bc bd 80 48 3d
       0.072998 0.033688378 -0.020338576 0.0489509
0000c0 f1 a3 d0 b8 9e eb a9 bd 4a 4e 75 bd ec 68 69 bd
       -9.948749e-05 -0.082968935 -0.059889115 -0.056984827
0000d0 aa f8 a7 bc c0 16 c5 3a 6d 5a 5f bd 7a e7 4a 3d
       -0.020504314 0.0015036687 -0.054529596 0.04953716
0000e0 09 4e 8f bd db 4c 90 3d 52 f0 08 3d f0 4b 26 bc
       -0.06997306 0.07045909 0.033432312 -0.010149941
0000f0 ca 12 c2 bc 4b f8 99 bc 89 ff 04 3c 31 7a f2 bb
       -0.0236906 -0.018795153 0.008117565 -0.0073998203
000100 e6 77 b5 bd b8 0d 4b bc 07 c9 07 bd 26 77 1e bc
       -0.088607594 -0.0123934075 -0.0331507 -0.009671962
000110 cf d4 d4 bc d3 12 a9 bd 86 b3 57 3d 35 1a 30 bd
       -0.025980381 -0.082555436 0.05266144 -0.042993743
000120 1b b4 23 bd be 8a a0 bd 73 23 f0 3c 5f 5d 74 bc
       -0.039966684 -0.07838963 0.029313779 -0.0149148395
000130 32 46 a1 bd da dc 0c bd 1f 44 92 bd 57 a0 70 bb
       -0.07874717 -0.034390308 -0.07141899 -0.0036716664
000140 59 44 ac 3d aa 23 6c 3d aa ef b8 bc f1 97 63 bd
       0.08411474 0.0576512 -0.022575218 -0.055564824
000150 aa 71 dd 3c 4f cd 86 3d 86 d8 36 3d b0 bd d0 3c
       0.027031738 0.06582128 0.044640087 0.025481075
000160 a9 69 da bb 04 a2 15 bd 6c d8 80 3d e7 67 a1 bd
       -0.0066654277 -0.036531463 0.06291279 -0.07881146
000170 ae 02 29 3d 08 23 95 bd d4 50 a0 bc 82 d5 93 bc
       0.04126232 -0.07282072 -0.019569792 -0.018046144
000180 62 c7 77 3d b0 26 d8 bb ba c9 8c bd 1e c7 9f bb
       0.06049288 -0.006596409 -0.06874414 -0.0048760315
000190 06 ed 14 3d a2 c4 6e 3c e7 09 15 3d af cb 96 3c
       0.036358856 0.014573248 0.036386397 0.01840767
0001a0 d6 1a 92 3d 7c 5b 8a bd d8 29 37 3b 55 22 0f bc
       0.07134025 -0.067557305 0.0027948525 -0.008736213
0001b0 6d 51 a0 3d 2c 4e 99 bc bd b2 08 bd c9 e3 a8 3d
       0.07828031 -0.018714033 -0.033373583 0.082465716
0001c0 88 8c 1f bc 3e b2 73 3d a0 7b b7 bc 07 31 81 bd
       -0.009738095 0.059496157 -0.022397816 -0.06308179
0001d0 52 51 a4 bc 1e 24 23 bd 47 f5 82 bd ce de 90 3c
       -0.020058308 -0.039829366 -0.06394439 0.017684367
0001e0 ed 58 a6 bd f3 20 53 bd ac 7e fb 3c 71 3c 08 3d
       -0.0812243 -0.051545095 0.03070005 0.033260766
0001f0 ac 43 4b bc f2 60 c1 3c b4 02 0c 3d ec 6b ee 3b
       -0.012406271 0.023605797 0.034182265 0.007276049
000200 cf 88 c9 3c 3e 3c 00 bc e0 c6 60 bc 30 34 15 bd
       0.024601368 -0.007826863 -0.0137192905 -0.036426723
000210 82 54 2e bc e4 0d 6b bd 02 14 13 bd 2d b9 63 3d
       -0.010640265 -0.057386294 -0.035907753 0.05559652
000220 41 9f 0d 3d 10 d5 8d 3c 4c 99 db bc 08 7e 49 bd
       0.034575704 0.01731351 -0.026806496 -0.04919246
000230 78 e8 ff bc 47 e3 eb 3c f9 d3 45 bc e4 ea 16 3d
       -0.03123878 0.028794898 -0.012074464 0.036845103
000240 85 ed eb 3c 24 e9 57 3d f9 70 36 3d f1 dd 00 3d
       0.028799782 0.052712575 0.044541333 0.03146166
000250 60 4f 50 3d 81 e8 9e bd 60 da 03 bd e9 fc 93 bd
       0.050856948 -0.0775919 -0.03219068 -0.07225973
000260 bc f5 0c bd ba 07 a3 bd 0e 30 87 3d 25 99 4d bd
       -0.034414038 -0.07960458 0.066009626 -0.050194878
000270 df c1 50 3d ec 7b aa bd dc 7a 77 3c 31 4f 58 bd
       0.05096614 -0.083244175 0.015104976 -0.052809898
000280 b4 9c a1 bb c1 82 28 bd 99 9c 63 3d a4 fe 8f 3d
       -0.0049320105 -0.04114032 0.055569265 0.07030991
000290 a1 78 5c 3d e9 81 67 bd cd 5d 8b 3d d0 8e f3 bc
       0.05382598 -0.056520376 0.068050005 -0.029731184
0002a0 d2 e4 83 3d 9c b4 f8 3c fe 5c 93 bd be bb 83 3b
       0.064401284 0.030359559 -0.07195471 0.0040201833
0002b0 6b d3 98 bc df c7 84 3d f1 9e 80 3a 12 71 03 bc
       -0.0186555 0.06483435 0.0009812993 -0.0080225635
0002c0 cb a8 a3 bd 48 b7 19 3d 90 4b 69 3a 3e dd de 3c
       -0.07991179 0.037528306 0.00088995043 0.027205106
0002d0 b2 bc fd 3c a0 35 60 3d 7b f6 68 bd de 60 60 3d
       0.030973766 0.05473864 -0.056875687 0.05477988
0002e0 b0 3c ad bd 56 c0 a7 bc bb 94 68 bd 89 0f b4 3c
       -0.08458841 -0.020477455 -0.056782465 0.021980064
0002f0 cf 7b 8f bd ff af 56 3c d2 0a 9d 3c 81 00 17 3d
       -0.070060365 0.013103484 0.019170199 0.036865715
000300 30 17 82 bd 78 f9 95 3d 00 12 54 3b 18 43 6a 3d
       -0.06352079 0.07322973 0.0032359362 0.05719289
000310 63 6d 73 3d 82 2a d8 ba 93 20 57 bd 58 0b bc 3c
       0.05943049 -0.001649216 -0.0525213 0.022954628
000320 4c a9 b9 3c d5 a7 22 bd f8 c1 5c bc ce 50 4b bc
       0.022663735 -0.03971084 -0.01347398 -0.012409402
000330 3c 7c 8d 3d 24 21 2d 3c 7a ba 02 bc 5f 29 af bd
       0.069084615 0.010566983 -0.00797903 -0.08552813
000340 f6 5c b9 bc bc 54 0d 3d a1 c7 7a 3d bf 2f 1b bd
       -0.022627335 0.034504637 0.061225537 -0.03788733
000350 bc ec cf 3a a0 3c ab bd 34 58 f3 3c ac e5 82 3d
       0.0015863399 -0.08361173 0.029705144 0.06391463
000360 6a f7 bc bc a2 3f 7d 3d 12 67 b2 bd 2f 09 a5 bd
       -0.023067195 0.061828263 -0.08711065 -0.08058392
000370 e7 48 85 bd 94 2d 1b bb 31 b3 54 3c 93 52 4e bb
       -0.06508046 -0.002367829 0.012982176 -0.0031482324
000380 11 f6 84 3d 08 1e ad 3c d4 3f 89 3d 6c 8a c7 bc
       0.06492246 0.021132484 0.067016274 -0.024357997
000390 4f 41 3e bd c8 56 a7 3c 46 f1 a7 bc bc 00 af ba
       -0.046449002 0.020427123 -0.02050079 -0.0013351659
0003a0 7f 9f 3b 3d 16 ff 27 bd d2 9a 5d 3d 7c 76 3e bd
       0.045806404 -0.041014753 0.054102726 -0.046499714
0003b0 1e ff 92 3d 81 e7 0b 3d 9c 83 9b 3d b6 e4 80 bc
       0.07177566 0.034156326 0.07593462 -0.015734058
0003c0 10 f6 43 3d 95 72 6d 3d 52 e0 f1 3c 22 eb 8c bd
       0.047842085 0.057970602 0.02952591 -0.068807855
0003d0 63 c0 63 bd b4 b8 da 3c fb e8 35 bd a8 18 45 bd
       -0.055603396 0.026699401 -0.04441164 -0.048119217
0003e0 97 04 0e bd ef e9 76 3d 00 eb e1 bc 4f d4 ca 3c
       -0.034672346 0.06028169 -0.027577877 0.02475944
0003f0 ce ef 65 3c 1b b3 33 bd 82 a7 63 3d c6 93 b0 bd
       0.014034225 -0.04387198 0.05557967 -0.086219355

arith.constant2 f4 [10]
000000 b4 e0 eb 3e 9b e2 6a bf 60 e3 73 3f d8 01 c8 be
       0.46069872 -0.9175202 0.9526882 -0.39063907
000010 e4 1e 4d 3f 93 60 32 bf 45 ae 49 3f 15 75 63 bf
       0.8012526 -0.6967861 0.7878154 -0.8885053
000020 87 e0 d0 be 5e 07 7a bf
       -0.407963 -0.9766749

arith.constant3 f4 [64]
000000 dd 9e 85 bc 63 41 cb bc 41 3f 0a bd 67 b7 e8 3c
       -0.016311103 -0.024811452 -0.03375173 0.028407766
000010 c2 1d 9b bc e9 60 c8 bc e9 4f 93 bc cc b1 e8 3b
       -0.018935088 -0.024460273 -0.01798244 0.007101273
000020 c4 c9 eb bc 81 05 2b bc 38 18 79 bb 23 4f a5 bc
       -0.028782733 -0.010438324 -0.003800882 -0.020179337
000030 47 11 c8 bc 9f 56 01 3c b0 7f c8 bc 09 cc 9f bc
       -0.024422301 0.007894187 -0.024474949 -0.019506471
000040 b1 89 7f bc 56 62 9d ba 39 cc 10 bd c3 99 df bc
       -0.015596793 -0.0012007456 -0.035351012 -0.027294999
000050 54 41 24 3d 6e ab 3c bc c1 74 9f bc ec 16 72 bc
       0.040101364 -0.011515481 -0.019464852 -0.014775973
000060 78 19 27 3c d0 ff ac bc 18 99 1b bd 9e 41 5f bd
       0.010198943 -0.021118075 -0.0379878 -0.054505937
000070 25 e8 30 bc 6b 47 ae bc 31 df 97 bc 9d ae 99 bc
       -0.010797535 -0.02127429 -0.018539043 -0.01876002
000080 e1 f0 8b bc 63 e0 81 bc 8c 76 28 bc cf 8d 66 bc
       -0.017082633 -0.015854066 -0.01028217 -0.014071896
000090 87 df 9d bc b2 1d 05 bd 48 56 d3 bc 1c ef b1 bc
       -0.019271625 -0.032499023 -0.025797978 -0.021720462
0000a0 02 2c a4 bc e9 c6 49 3c 3a e4 ac bc 3f 82 ab bc
       -0.020040516 0.01231549 -0.02110492 -0.02093613
0000b0 7b 61 14 bd 3e 54 d7 bc 05 f3 61 bc 68 fc 71 bc
       -0.036225777 -0.026285287 -0.0137908505 -0.014769651
0000c0 a9 ed 9d 3b 9b 49 d4 bc 10 d9 75 bc 6e 1c 17 bc
       0.004819591 -0.025914004 -0.015005365 -0.009223087
0000d0 5e db c1 3c 72 41 df 3c 4a f0 8c bc 40 5a ac bc
       0.023664173 0.027252886 -0.017204423 -0.021039128
0000e0 0b f0 90 bc c1 30 da bb ec 12 8e bc 67 b4 96 3c
       -0.017692586 -0.006658644 -0.017343007 0.01839657
0000f0 42 48 54 bc 54 c7 c4 bc 64 f9 ee bb c0 d3 14 bd
       -0.012956681 -0.024020828 -0.0072929133 -0.036334753
